…
a:	./sport_data/
vocab:	./sport_data/vocab.txt
vocab_size:	60000
type_num:	4
head_num:	4
log:	./sport_data/log/
epoch:	10
batch_size:	32
param_init:	0.1
optim:	adam
learning_rate:	0.0005
max_grad_norm:	8
window_size:	[1, 2, 3]
filter_size:	128
learning_rate_decay:	0.5
schedule:	True
start_decay_at:	2
emb_size:	128
encoder_hidden_size:	128
decoder_hidden_size:	256
num_layers:	2
bidirec:	True
dropout:	0.1
max_tgt_len:	30
max_sentence_len:	100
eval_interval:	500
save_interval:	2000
max_generator_batches:	32
metric:	['bleu', 'xent']
shared_vocab:	True
beam_size:	10

graph2gru_noAtten(
  (embedding): Embedding(60000, 128)
  (encoder): Memory_Network(
    (embedding): Embedding(60000, 128)
    (bert): BERT(
      (position_emb): Embedding(101, 128)
      (encoder): Encoder(
        (layers): ModuleList(
          (0): EncoderLayer(
            (self_attn): MultiHeadedAttention(
              (linears): ModuleList(
                (0): Linear(in_features=128, out_features=128, bias=True)
                (1): Linear(in_features=128, out_features=128, bias=True)
                (2): Linear(in_features=128, out_features=128, bias=True)
                (3): Linear(in_features=128, out_features=128, bias=True)
              )
            )
            (feed_forward): PositionwiseFeedForward(
              (w_1): Linear(in_features=128, out_features=128, bias=True)
              (w_2): Linear(in_features=128, out_features=128, bias=True)
              (dropout): Dropout(p=0.1, inplace=False)
            )
            (sublayer): ModuleList(
              (0): SublayerConnection(
                (norm): LayerNorm()
                (dropout): Dropout(p=0.1, inplace=False)
              )
              (1): SublayerConnection(
                (norm): LayerNorm()
                (dropout): Dropout(p=0.1, inplace=False)
              )
            )
          )
          (1): EncoderLayer(
            (self_attn): MultiHeadedAttention(
              (linears): ModuleList(
                (0): Linear(in_features=128, out_features=128, bias=True)
                (1): Linear(in_features=128, out_features=128, bias=True)
                (2): Linear(in_features=128, out_features=128, bias=True)
                (3): Linear(in_features=128, out_features=128, bias=True)
              )
            )
            (feed_forward): PositionwiseFeedForward(
              (w_1): Linear(in_features=128, out_features=128, bias=True)
              (w_2): Linear(in_features=128, out_features=128, bias=True)
              (dropout): Dropout(p=0.1, inplace=False)
            )
            (sublayer): ModuleList(
              (0): SublayerConnection(
                (norm): LayerNorm()
                (dropout): Dropout(p=0.1, inplace=False)
              )
              (1): SublayerConnection(
                (norm): LayerNorm()
                (dropout): Dropout(p=0.1, inplace=False)
              )
            )
          )
        )
        (norm): LayerNorm()
      )
      (word_emb): Embedding(60000, 128)
      (generator): Generator(
        (ff): Sequential(
          (0): Linear(in_features=128, out_features=128, bias=True)
          (1): ReLU()
        )
        (emb): Embedding(60000, 128)
      )
    )
    (gcn): GraphConvolution(
      (linear): Linear(in_features=128, out_features=128, bias=True)
      (activation): Tanh()
    )
    (out): Linear(in_features=128, out_features=256, bias=True)
    (tanh): Tanh()
  )
  (decoder): rnn_decoder_noAtten(
    (embedding): Embedding(60000, 128)
    (rnn): StackedGRU(
      (dropout): Dropout(p=0.1, inplace=False)
      (layers): ModuleList(
        (0): GRUCell(128, 256)
        (1): GRUCell(256, 256)
      )
    )
    (linear): Linear(in_features=256, out_features=60000, bias=True)
    (dropout): Dropout(p=0.1, inplace=False)
  )
  (state_wh): Linear(in_features=256, out_features=512, bias=True)
  (tanh): Tanh()
  (criterion): CrossEntropyLoss()
  (log_softmax): LogSoftmax()
)

total number of parameters: 24201184

time: 229.812, epoch:   1, updates:      500, train loss:  4.571, train acc: 0.050
time: 233.050, epoch:   1, updates:     1000, train loss:  4.308, train acc: 0.062
time: 78.598, epoch:   2, updates:     1500, train loss:  1.406, train acc: 0.023
…
